snake_game/model/model.pth (torch, 16799 bytes, 4 tensors)

linear1.weight f4 [256, 11]
0	0x3daeb322	0.085302606
1	0x3d397b06	0.04528334
2	0xbd0518a3	-0.0324942
3	0xbd1c4137	-0.03814813
4	0xbed6bd26	-0.41941184
5	0x3e6e5953	0.23276262
6	0xbead6c53	-0.33871707
7	0x3ebcd6b4	0.36882555
8	0x3f181cfb	0.5941922
9	0xbd20f6e9	-0.039297972
10	0x3f0ff877	0.562385
11	0x3da5d924	0.08098057
12	0xbe8da74f	-0.2766671
13	0xbdbc5818	-0.0919649
14	0xbee70552	-0.45121247
15	0xbee6ab7d	-0.4505271
16	0x3e29f0b5	0.16595729
17	0x3e2ef954	0.17087299
18	0x3f1733ba	0.59063303
19	0x3ee5706f	0.44812343
20	0xbda2a986	-0.0794249
21	0x3c6e3394	0.014538664
22	0xbecb8799	-0.3975189
23	0xbd26bd66	-0.04070797
24	0x3f2a2f1c	0.66478133
25	0xbebf7b63	-0.37398824
26	0x3afcc100	0.0019283593
27	0x3c9fae99	0.019492434
28	0x3e37b39d	0.17939611
29	0xbee0369a	-0.43791658
30	0xbe27a1e7	-0.16370355
31	0x3da40598	0.080088794
32	0xbd014767	-0.031562235
33	0x3eb5c6c8	0.3550322
34	0xbde2d4b0	-0.11075723
35	0x3ed351f3	0.4127346
36	0xbe652c6f	-0.22380231
37	0xbe3a301c	-0.18182415
38	0x3e275a5a	0.1634306
39	0xbe5ff9c2	-0.21872619
40	0x3e546197	0.20740353
41	0x3e2f8825	0.17141779
42	0xbe2b7d90	-0.16747117
43	0x3e5b6557	0.21425377
44	0xbe868694	-0.2627455
45	0x3e8c4778	0.27398276
46	0x3ea8525e	0.3287534
47	0xbd009182	-0.031388767
48	0xbed8a3fa	-0.42312604
49	0x3c03706c	0.008022409
50	0x3e721ae8	0.23643076
51	0x3e28be1d	0.16478772
52	0x3f0c784f	0.54871076
53	0x3e0777d4	0.13229305
54	0xbdd5c018	-0.104370296
55	0x3e14d3a9	0.14533867
56	0x3eb8d31c	0.36098564
57	0x3bf2a406	0.007404807
58	0xbe82cdab	-0.25547537
59	0xbeb5a2f4	-0.35475886
60	0x3e2b1452	0.1670697
61	0x3b9b7c11	0.0047450145
62	0x3e3dea41	0.18546392
63	0xbcb3fd23	-0.02197129
64	0xbe67d29c	-0.22638935
65	0xbeb04275	-0.34425703
66	0x3e8a74b3	0.2704216
67	0x3f206d58	0.62666845
68	0xbf0b7615	-0.54477054
69	0xbead0f41	-0.338007
70	0x3c6592e5	0.014012073
71	0xbe35a217	-0.17737614
72	0xbe8b252d	-0.271768
73	0x3ec26b24	0.37972367
74	0xbea679d4	-0.32514822
75	0x3e03e0d6	0.12878737
76	0x3e419ade	0.18906733
77	0xbe921a9b	-0.28535923
78	0x3de276de	0.11057828
79	0xbd2b095b	-0.04175697
80	0x3ea02065	0.31274715
81	0x3e7959de	0.24350688
82	0xbeb2f543	-0.34952745
83	0x3d9f09e8	0.07765561
84	0x3d9adb93	0.07561412
85	0x3e67ae79	0.2262515
86	0xbec3dc51	-0.38254026
87	0xbeb036b1	-0.34416726
88	0xbe091be2	-0.13389543
89	0x3bd0b6ce	0.0063694483
90	0x3cf7f996	0.030270379
91	0x3d5b47cc	0.053535268
92	0xbea9cd40	-0.33164406
93	0xbd6a48e4	-0.05719842
94	0x3d5ee43e	0.054416887
95	0xbe691190	-0.22760606
96	0x3ea27042	0.3172627
97	0xbe328394	-0.17433006
98	0xbd00e26b	-0.03146593
99	0x3ed6eed2	0.4197908
100	0xbf05ecc5	-0.52314407
101	0xbedebcc1	-0.43503383
102	0xbe8a1fa6	-0.2697727
103	0xbe1b4154	-0.1516164
104	0xbe1b4944	-0.15164667
105	0xbda6be32	-0.081417456
106	0xbdc181ab	-0.0944856
107	0x3e9d0498	0.30667567
108	0x3b2ac2d7	0.0026056075
109	0xbe3be2d1	-0.18348242
110	0xbe448cdc	-0.19194359
111	0xbe530303	-0.20606618
112	0x3dcc24ea	0.09967978
113	0x3d820e13	0.06350341
114	0xba856539	-0.0010177261
115	0x3ea8854c	0.32914197
116	0xbd6cb11c	-0.057786092
117	0x3e66e5ff	0.22548674
118	0x3e21c55a	0.1579794
119	0x3da85fc8	0.08221394
120	0xbda9b9f5	-0.082874216
121	0x3f02f67c	0.51157355
122	0x3e7d0791	0.24709918
123	0xbefb3908	-0.4906695
124	0x3e445eba	0.1917676
125	0xbd45cba4	-0.04828991
126	0xbccdc6f7	-0.025119288
127	0xbe8a9082	-0.27063376
128	0x3d827ca0	0.063714266
129	0xbe21133e	-0.15729997
130	0xbdf5abf6	-0.119956896
131	0x3e0a6944	0.13516718
132	0x3d63f55c	0.055653915
133	0xbe3dd79d	-0.18539281
134	0xbe35e005	-0.17761238
135	0x3e3c318f	0.1837828
136	0xbeabae80	-0.3353157
137	0x3eba14e6	0.3634407
138	0xbe8fda13	-0.28096065
139	0xbf0f8124	-0.5605643
140	0xbee15766	-0.44011992
141	0x3e808a70	0.2510562
142	0xbef325cb	-0.4748977
143	0x3f01f97e	0.5077132
144	0xbdfa1e5a	-0.1221282
145	0x3e908ca6	0.28232306
146	0xbefa4c3d	-0.4888629
147	0x3e318bc3	0.17338471
148	0x3c052ab3	0.008127856
149	0x3d32a8d3	0.043618035
150	0x3edcd503	0.43131265
151	0xbe9bcbda	-0.30428964
152	0xbd8fe60f	-0.07026302
153	0xbdc64772	-0.09681596
154	0x3e52b30a	0.2057611
155	0x3de65429	0.11246521
156	0x3e8f95cf	0.28043982
157	0xbe5a9676	-0.21346459
158	0x3e7b8c29	0.24565186
159	0x3de6678d	0.112502195
160	0x3e660ce8	0.22465861
161	0x3ebb5479	0.36587885
162	0x3de73318	0.11289042
163	0x3e306bc3	0.17228608
164	0x3da76b80	0.08174801
165	0x3d090fe9	0.03346244
166	0xbe0e583a	-0.13900843
167	0xbd891728	-0.0669387
168	0xbe9d770a	-0.30754882
169	0xbeb48a82	-0.35261923
170	0x3e214b8b	0.15751474
171	0x3eaf6391	0.3425565
172	0xbf2fb8d7	-0.6864142
173	0xbf3732e3	-0.7156202
174	0x3e7591e6	0.23981437
175	0x3d3ae3af	0.045627292
176	0xbe0deb22	-0.13859227
177	0x3ec729ff	0.38899228
178	0xbddf15ae	-0.10892807
179	0x3e26620a	0.16248336
180	0x3d211de5	0.03933515
181	0x3e698fe4	0.22808796
182	0xbe33441d	-0.17506452
183	0x3d9ed819	0.07756061
184	0xbc1b3fa8	-0.009475626
185	0x3c686300	0.01418376
186	0xbe759aa6	-0.23984775
187	0xbc400b48	-0.01172144
188	0x3e385e38	0.18004692
189	0xbe79a0a9	-0.24377693
190	0xbe41afa5	-0.1891466
191	0xbe20d696	-0.15706858
192	0x3e2ba7f3	0.16763286
193	0x3debf5f4	0.11521521
194	0x3d2b07ae	0.04175537
195	0xbdd6579a	-0.104659274
196	0xbe8d2e18	-0.2757423
197	0xbe5a2e4a	-0.2130672
198	0x3ee8216c	0.45338
199	0xbda234f8	-0.07920259
200	0x3eab4e67	0.33458254
201	0x3e0f2479	0.13978757
202	0xbe2f27cc	-0.17105025
203	0x3e58068c	0.21096247
204	0x3e0ea244	0.13929087
205	0xbd8316a6	-0.06400804
206	0xbe0e00aa	-0.13867441
207	0xbdfe6737	-0.124220304
208	0xbd619476	-0.055073224
209	0x3d5faf2b	0.054610413
210	0x3d8950cc	0.06704864
211	0x3e3503d5	0.17677243
212	0xbe6b061d	-0.22951551
213	0xbe1e356b	-0.15450065
214	0x3e49fe11	0.19725825
215	0xbe64b8c7	-0.22336112
216	0xbe221bc3	-0.15830903
217	0x3e60d086	0.21954545
218	0xbd1665a7	-0.036718037
219	0xbec38fd0	-0.38195658
220	0x3d6f9a62	0.05849684
221	0x3ec5ca68	0.38630986
222	0xbe473dc1	-0.19457151
223	0x3e5dac7b	0.21647827
224	0xbe85ea6b	-0.2615541
225	0xbefdff4b	-0.49608836
226	0x3e2ca348	0.16859162
227	0xbe9294d7	-0.2862918
228	0x3f01433b	0.5049321
229	0xbc953747	-0.018214835
230	0xbeb24e14	-0.34825194
231	0xbe610207	-0.2197343
232	0x3e4afde1	0.1982341
233	0xbe3e1431	-0.1856239
234	0xbeec0686	-0.46098727
235	0x3df72832	0.120682135
236	0xbf007fd1	-0.5019503
237	0x3e958aaa	0.29207355
238	0xbf0b9db5	-0.54537517
239	0xbe9fe8db	-0.31232342
240	0xbebc909f	-0.36829087
241	0x3ede3168	0.4339707
242	0x3dde9880	0.10868931
243	0xbecaf8aa	-0.3964284
244	0x3f1102d6	0.5664495
245	0x3e309999	0.17246093
246	0x3eab54a7	0.33463022
247	0x3e6e2980	0.23258018
248	0x3e7da36a	0.24769369
249	0xbe8ce014	-0.27514708
250	0xbe9c352a	-0.3050931
251	0x3e81f069	0.2537873
252	0x3e4a0201	0.19727327
253	0x3dd31e22	0.10308482
254	0xbe9db51c	-0.30802238
255	0x3e9acfd6	0.3023669

linear1.bias f4 [256]
0	0xbe3dfee7	-0.18554269
1	0xbda1e563	-0.0790508
2	0x3ecb7610	0.39738512
3	0x3b9a6d96	0.0047127707
4	0xbe162d59	-0.14665736
5	0xbb067f9b	-0.0020522836
6	0x3d86d095	0.065827526
7	0x3e018ed1	0.12652136
8	0x3e033bc9	0.12815775
9	0x3e0f2a93	0.13981085
10	0xbed50cf2	-0.4161144
11	0x3d2c402c	0.042053387
12	0x3d3f9199	0.046769712
13	0x3d5ebbac	0.054378197
14	0x3e954443	0.29153642
15	0x3ebc372d	0.36760846
16	0x3dee66d1	0.116407044
17	0xbecdfe99	-0.40233305
18	0x3cd0446e	0.025423255
19	0xbe8c4604	-0.27397168
20	0xbc95d214	-0.01828865
21	0x3e09ca6b	0.13456123
22	0xbd9ac8a2	-0.07557799
23	0x3d62d8bc	0.055382475
24	0x3e1b0852	0.15139893
25	0xbe639156	-0.2222341
26	0xbc9e94cd	-0.019358063
27	0xbe57e1d3	-0.21082239
28	0x3c50170d	0.012700808
29	0xbe31a06e	-0.17346355
30	0x3eab77e2	0.334899
31	0x3e9ab362	0.30214983
32	0xbdf8d906	-0.12150769
33	0x3e0597ee	0.13046238
34	0x3d36cdac	0.044629738
35	0x3e550530	0.2080276
36	0xbdb84ddf	-0.08999228
37	0xbe22252d	-0.15834494
38	0x3ce1ff1a	0.027587462
39	0xbe4e6ab2	-0.20157889
40	0xbdebc6e8	-0.11512548
41	0xbe440d27	-0.19145642
42	0xbdc4f74e	-0.09617482
43	0xbe0657c2	-0.13119414
44	0xbe1292f8	-0.14313877
45	0x3c26cb44	0.010180298
46	0xbdbc3663	-0.09190061
47	0x3d67bca4	0.056576386
48	0xbe11c6fe	-0.14236066
49	0x3e2e2760	0.17007208
50	0xbcb2328f	-0.021752624
51	0x3d8fc602	0.07020189
52	0x3e2f7013	0.17132597
53	0x3d9c5d3e	0.07634972
54	0xbdd456b5	-0.103681006
55	0x3dc0d8b8	0.09416336
56	0x3d8822cb	0.06647261
57	0xbcd530ff	-0.02602434
58	0xbeb75f5f	-0.3581495
59	0xbe7b0601	-0.24514009
60	0x3e8ab396	0.27090138
61	0xbd889822	-0.06669642
62	0x3e836601	0.2566376
63	0x3d25f46e	0.04051631
64	0xbe2aee6d	-0.16692515
65	0xbda29e3c	-0.07940337
66	0xbdec639e	-0.11542438
67	0xbe8b410b	-0.2719806
68	0x3e881d2e	0.26584762
69	0xbe3a8d71	-0.18218018
70	0xbe18d1b6	-0.14923748
71	0xbe0192e9	-0.12653698
72	0xbdcaffec	-0.099120945
73	0xbe210d40	-0.1572771
74	0xbddb9645	-0.10722021
75	0xbe94ce36	-0.29063576
76	0x3d0bc0e7	0.034119513
77	0x3c8a30fb	0.016869059
78	0x3cf30553	0.029665625
79	0xbe0db75c	-0.13839477
80	0x3d3b4d63	0.0457281
81	0x3dea884b	0.11451777
82	0x3c8851be	0.01664054
83	0xbea0a6d4	-0.3137728
84	0xbe798646	-0.24367628
85	0x3e2dfdc8	0.16991341
86	0xbe4b7f56	-0.19872794
87	0x3dba14c1	0.0908599
88	0xbe32e585	-0.17470367
89	0xbcf20bbb	-0.02954661
90	0xbec18c50	-0.37802362
91	0xbb15ecbb	-0.0022876698
92	0x3cf80cd0	0.030279547
93	0xbe24c3d5	-0.16090329
94	0x3c7e914a	0.015537569
95	0xbe7b4eb9	-0.24541749
96	0xbeb1ad7f	-0.3470268
97	0xbe3af1ab	-0.18256252
98	0x3e8884b8	0.26663756
99	0x3e015ffe	0.12634274
100	0x3e16f726	0.14742717
101	0xbd86da58	-0.065846145
102	0xbe695d6b	-0.22789542
103	0x3e689de9	0.22716488
104	0x3e1f7d5e	0.15575168
105	0xbddb3bee	-0.1070479
106	0x3e983437	0.29727337
107	0x3e0a10a7	0.13482915
108	0xbc469d8c	-0.012122523
109	0xbe908192	-0.28223854
110	0x3c045da6	0.008078968
111	0xbe1a404f	-0.15063594
112	0x3d90e218	0.07074374
113	0x3bee8c3e	0.0072799018
114	0x3e8c9e4f	0.2746453
115	0xbe966f28	-0.2938168
116	0xbddf7824	-0.10911587
117	0xbd83d73a	-0.064375356
118	0xbd8d2822	-0.0689242
119	0xbd8fbc03	-0.07018282
120	0xbc1b95ae	-0.009496136
121	0xbe1b608a	-0.15173545
122	0x3d327b4d	0.04357462
123	0x3d1daaaa	0.038492836
124	0xbe01037e	-0.12598988
125	0xbe89cd56	-0.2691447
126	0xbdce2813	-0.10066237
127	0xbe8ded66	-0.27720183
128	0xbe781f07	-0.24230586
129	0x3e9c0a23	0.30476484
130	0xbcd43bf7	-0.0259075
131	0x3dc590b4	0.096467406
132	0x3d1ee455	0.038791973
133	0xbe608b34	-0.21928102
134	0x3e8551e0	0.26039028
135	0xbdeccdd6	-0.115626976
136	0x3e3a6774	0.18203527
137	0x3e0273fb	0.12739556
138	0xbe65030e	-0.22364447
139	0x3e0db312	0.13837841
140	0xbd73f078	-0.0595555
141	0x3cf35373	0.029702878
142	0xbe346798	-0.17617643
143	0xbc2595a0	-0.010106474
144	0xbe5b69dd	-0.21427102
145	0xbde23c0d	-0.1104661
146	0x3e0ece2f	0.1394584
147	0xbde5c670	-0.112194896
148	0xbdd69a4d	-0.10478649
149	0xbe8fae09	-0.28062466
150	0xbe4142a9	-0.18873085
151	0xbb635b1c	-0.0034691757
152	0x3e2209b1	0.1582401
153	0xbe169dc0	-0.14708614
154	0xbd87985e	-0.066208586
155	0x3cb959c4	0.022625811
156	0x3d032b85	0.032023925
157	0x3e5a0403	0.21290593
158	0x3cd411c9	0.025887387
159	0xbd4f77d1	-0.050651375
160	0xbc75fa14	-0.015013237
161	0xbe500a40	-0.2031641
162	0x3e98991c	0.29804313
163	0xbd2c9d47	-0.04214218
164	0xbe0d92da	-0.1382555
165	0x3dc8214b	0.09771975
166	0xbd198424	-0.037479535
167	0x3e79887a	0.24368468
168	0xbdeb6a42	-0.114948764
169	0x3e9a1699	0.30095366
170	0x3e147bc7	0.14500342
171	0x3c63c690	0.013902321
172	0x3e7c1d32	0.24620512
173	0xbd2da9f1	-0.042398397
174	0xbe14ac89	-0.14518942
175	0x3ec7eb8a	0.3904689
176	0xbe197dce	-0.14989397
177	0xbc900108	-0.017578617
178	0x3ca0f5a0	0.019648373
179	0x3c946c9d	0.018118197
180	0x3e6098cd	0.21933289
181	0xbe32261c	-0.1739735
182	0x3e28610e	0.16443273
183	0xbe7febe2	-0.24992326
184	0xbe8bca91	-0.27302983
185	0xbeb23548	-0.34806275
186	0xbca27ce4	-0.019834943
187	0xbe58bdbc	-0.21166128
188	0x3d96ca6c	0.07362828
189	0x3d71b0da	0.05900655
190	0xbd981eb5	-0.07427732
191	0xbd48d54c	-0.04903154
192	0xbe3cd20a	-0.18439499
193	0xbdc211ea	-0.09476073
194	0x3e9868b7	0.2976739
195	0x3ec09ee6	0.3762123
196	0xbe88584f	-0.26629874
197	0x3ea6b887	0.32562658
198	0x3d4e19c1	0.05031753
199	0xbcaf2ad6	-0.02138273
200	0x3da31919	0.079637714
201	0xbe3ad9e0	-0.18247175
202	0x3d6cbdf3	0.057798337
203	0xbe2a99eb	-0.16660278
204	0xbdbb465d	-0.0914428
205	0xbe049f1a	-0.12951317
206	0x3da44af1	0.080221064
207	0x3c097155	0.008388837
208	0xbe462083	-0.1934834
209	0x3de4458b	0.11146077
210	0xbd1ee4f6	-0.038792573
211	0xbd41b8a4	-0.047295228
212	0xbb94593d	-0.0045272396
213	0xbc4dde1a	-0.01256516
214	0xbe00bfc5	-0.12573154
215	0x3e331dac	0.17491788
216	0x3e24cc7b	0.16093628
217	0x3d9679c4	0.07347444
218	0xbeba1dbb	-0.36350808
219	0x3dd45ccf	0.10369264
220	0xbd27ad5f	-0.040936824
221	0x3dca6099	0.09881706
222	0xbd72a6d1	-0.05924112
223	0x3e05ae43	0.13054757
224	0x3dbf2159	0.093325324
225	0xbe5435e1	-0.20723678
226	0xbd135432	-0.035968967
227	0xbda3a7ec	-0.07991013
228	0x3c8c716a	0.017143924
229	0xbd94340e	-0.07236491
230	0xb9cacb48	-0.000386799
231	0x3e0a91fc	0.13532251
232	0xbe8d6fc8	-0.27624345
233	0x3e9f3b85	0.31100097
234	0xbd6ec8f3	-0.05829711
235	0xba076c2c	-0.000516596
236	0xbc983ed1	-0.01858464
237	0x3df6648d	0.12030897
238	0xbe281723	-0.16415076
239	0xbe771976	-0.24130806
240	0x3ddc06a9	0.10743458
241	0x3cc9fcf2	0.024656747
242	0xbdb703bb	-0.089362584
243	0xbe0cb3d6	-0.13740477
244	0x3d7ba225	0.06143393
245	0x3e9805af	0.29691836
246	0xbd4a3388	-0.04936555
247	0xbe0b8097	-0.13623272
248	0x3e87e37a	0.26540738
249	0x3d1e889a	0.038704492
250	0x3b0fc863	0.0021939508
251	0xbde7bc04	-0.11315158
252	0xbd70574b	-0.058677
253	0xbe861e87	-0.26195166
254	0x3daae2cc	0.08344039
255	0xbdb61d77	-0.08892339

linear2.weight f4 [3, 256]
0	0xbebbbdaf	-0.36668155
1	0xbefab274	-0.48964274
2	0x3ece1e58	0.40257525
3	0xbe3a070b	-0.18166749
4	0xbe87a7e4	-0.26495278
5	0xbea97940	-0.3310032
6	0xbe5d33b7	-0.21601759
7	0x3e40abd2	0.18815544
8	0xbc473aef	-0.012160047
9	0xbe17e9bf	-0.14835261
10	0xbe030fb1	-0.12798955
11	0xbcb06e01	-0.021536829
12	0x3ea94305	0.33058944
13	0xbeac4501	-0.33646396
14	0x3d31b116	0.043381773
15	0x3f0ba236	0.5454439
16	0x3e68e211	0.22742487
17	0xbd1c5eb5	-0.038176257
18	0x3dae31fe	0.08505629
19	0xbe817d58	-0.25290942
20	0xbdee5287	-0.116368346
21	0x3ecd3401	0.40078738
22	0x3e55e128	0.20886672
23	0x3d9248d8	0.071428
24	0x3e335d1b	0.17515986
25	0x3d350a44	0.044199243
26	0x3e01651b	0.12636225
27	0xbe61cf72	-0.2205179
28	0xbe6b75a1	-0.2299409
29	0xbe6594b6	-0.2242001
30	0x3eae03e5	0.33987346
31	0x3e2ddb5a	0.16978207
32	0xbe3450ac	-0.17608899
33	0xbdccdce0	-0.10003066
34	0x3ef6a83e	0.48175234
35	0x3e751b43	0.23936181
36	0xbe26c451	-0.16285826
37	0xbecd2312	-0.4006582
38	0xbe70b83a	-0.23507777
39	0xbe9d345f	-0.30704018
40	0xbdee3189	-0.11630542
41	0xbccc8606	-0.024966251
42	0x3b5af8af	0.0033412387
43	0xbe447d3c	-0.19188398
44	0xbe7ee60f	-0.24892448
45	0xbe3924d6	-0.18080458
46	0xbd387c9e	-0.04504072
47	0xbf0b3fa5	-0.5439399
48	0xbe8764ac	-0.26443994
49	0x3daca9be	0.08430813
50	0x3e204d7e	0.15654561
51	0x3dde5555	0.108561195
52	0xbd8c8084	-0.0686045
53	0x3e93b2d5	0.28847376
54	0x3e5ed88d	0.21762295
55	0xbcba0477	-0.022707207
56	0x3e3a9479	0.182207
57	0xbe7fd29c	-0.24982685
58	0x3bec1f86	0.0072059063
59	0xbb779fa5	-0.0037784365
60	0x3e7c7e04	0.24657446
61	0x3e8a3d23	0.2699977
62	0x3d99771a	0.0749342
63	0xbbe04f5d	-0.0068453983
64	0x3d436b8a	0.04770998
65	0x3cda6ee0	0.026664197
66	0x3a0dbbf0	0.0005406728
67	0xbec9e451	-0.39432004
68	0x3cba8a36	0.022770982
69	0xbe49e3da	-0.19715825
70	0xbe895ce6	-0.26828688
71	0xbe99ae29	-0.30015686
72	0xbe3e3429	-0.18574585
73	0xbd09a0cf	-0.033600625
74	0xbe1b63db	-0.1517481
75	0xbdbe757f	-0.09299754
76	0xbd8a6c53	-0.067589425
77	0x3e3053b5	0.17219432
78	0xbe8ff807	-0.28118917
79	0xbda7795f	-0.081774466
80	0xbea73309	-0.32656124
81	0x3e8b7d95	0.2724425
82	0xbe766f84	-0.24065977
83	0x3d6c4b6e	0.057689123
84	0xbcf4655c	-0.029833488
85	0x3eaf92fc	0.34291828
86	0xbda08804	-0.07838443
87	0x3d29cbc5	0.041454095
88	0xbe2b9fea	-0.16760221
89	0xbdf5e142	-0.12005855
90	0x3c068820	0.008211166
91	0xbf0b1587	-0.54329723
92	0xbe238638	-0.15969169
93	0x3d60d62c	0.05489175
94	0xbe0896dd	-0.133388
95	0xbe86ea94	-0.26350844
96	0xbe29bb6a	-0.16575399
97	0xbe3058da	-0.17221394
98	0x3ea207b9	0.31646517
99	0xbe38c8c7	-0.1804534
100	0xbd3c673c	-0.04599689
101	0x3e15e1ab	0.14636867
102	0xbe259c8e	-0.16173002
103	0x3e106f67	0.14104997
104	0xbdda6e32	-0.10665549
105	0xbc183218	-0.009289287
106	0x3eb97c91	0.3622785
107	0xbd60bf78	-0.0548701
108	0x3d7c3a5d	0.061579097
109	0x3d36c898	0.044624895
110	0xbe17d9ec	-0.14829224
111	0x3d38610e	0.045014434
112	0xbdde8b7c	-0.10866448
113	0x3e21bb3d	0.15794082
114	0x3e6287ca	0.22122112
115	0xbeff8996	-0.49909657
116	0xbe87dbe2	-0.26534945
117	0x3e0185ff	0.12648772
118	0xbda4d3cc	-0.080482095
119	0xbed59308	-0.41713738
120	0xbdebccc0	-0.11513662
121	0x3e90dc21	0.28292945
122	0xbe59aafd	-0.21256633
123	0xbec962a1	-0.3933306
124	0xbe7df4d8	-0.24800432
125	0x3d0f5118	0.034989446
126	0xbe16f9b6	-0.14743695
127	0x3cecab33	0.028890228
128	0x3d944694	0.07240024
129	0x3df17c28	0.11791259
130	0x3d760cae	0.060070686
131	0x3eeb4bc2	0.45956236
132	0x3e940989	0.28913525
133	0xbe8c6c83	-0.27426538
134	0x3de9376f	0.11387526
135	0xbeab073a	-0.3340395
136	0x3dad336b	0.08457073
137	0x3cccebef	0.025014846
138	0xbf1df92b	-0.61708325
139	0x3d239a42	0.039942034
140	0x3e67d45c	0.22639602
141	0xbea761bd	-0.32691756
142	0x3e2bcaa5	0.16776522
143	0xbe199cf5	-0.1500128
144	0x3db3dae0	0.087819815
145	0xbead021a	-0.33790666
146	0x3eba2e52	0.36363465
147	0xbe0c3caf	-0.13695024
148	0xbe478dce	-0.19487688
149	0xbddf2757	-0.10896175
150	0x3e928f51	0.28624967
151	0xbe5f12ac	-0.21784467
152	0x3cf99b78	0.030469641
153	0xbe2bbf81	-0.16772272
154	0xbd7f6b65	-0.06235828
155	0xbee10aad	-0.43953457
156	0xbe9c7867	-0.3056061
157	0xbe36d478	-0.17854488
158	0xbde200a2	-0.11035277
159	0xbe39441d	-0.1809239
160	0xbefbc9ab	-0.49177298
161	0x3ccac200	0.02475071
162	0x3e109e6d	0.14122935
163	0xbeb18181	-0.34669116
164	0x3d2c5a69	0.04207841
165	0xbe0fc4b4	-0.1403988
166	0xbe93dc0d	-0.28878823
167	0x3c512948	0.01276619
168	0x3d25e39c	0.04050027
169	0x3ecb866b	0.3975099
170	0x3e742b45	0.23844631
171	0x3e854485	0.2602884
172	0x3e287776	0.1645182
173	0xbe38af24	-0.18035561
174	0xbe97b453	-0.29629764
175	0x3ead0cb1	0.33798745
176	0xbe016d2a	-0.12639299
177	0x3ec66ee7	0.38756487
178	0xbb3d17a4	-0.0028853202
179	0xbd326f78	-0.043563336
180	0x3d9f33c0	0.077735424
181	0x3e73e466	0.23817596
182	0x3dc8d900	0.098070145
183	0xbe292f7a	-0.16522017
184	0x3aad7960	0.0013235025
185	0xbddf4fd8	-0.10903901
186	0x3da2d187	0.079501204
187	0xbdec43e3	-0.11536386
188	0x3e54d071	0.20782639
189	0xbe55eb1d	-0.2089047
190	0xbe88c37e	-0.2671165
191	0xbdd5045d	-0.10401223
192	0xbd2bc420	-0.041935086
193	0x3da2fe63	0.07958677
194	0x3e467132	0.19379118
195	0x3eb320a5	0.34985843
196	0xbc535537	-0.012898735
197	0x3e93699c	0.2879151
198	0xbde41ee4	-0.111387044
199	0xbe429fdb	-0.19006293
200	0x3de9286f	0.11384665
201	0x3d2e378a	0.042533435
202	0xbdf9c016	-0.121948406
203	0xbe607736	-0.21920475
204	0xbebc5d90	-0.36790133
205	0xbdf5dd84	-0.120051414
206	0x3d599af7	0.0531263
207	0xbdc93e55	-0.09826342
208	0xbe8031e4	-0.25038064
209	0x3d17af00	0.037032127
210	0x3e43f326	0.19135723
211	0xbe677288	-0.22602284
212	0x3e1570d0	0.14593816
213	0xbda4d458	-0.08048314
214	0x3e8bf9e3	0.27339086
215	0xbdb1e51f	-0.086862795
216	0x3e8e1695	0.27751604
217	0x3e87e2d2	0.26540238
218	0xbd8630e6	-0.065522954
219	0x3e36e389	0.17860235
220	0x3ec984d7	0.3935916
221	0x3dbad122	0.0912192
222	0x3e68cd1d	0.22734495
223	0x3e9ae2a2	0.30251032
224	0x3d88b292	0.066746846
225	0xbdbe6a70	-0.09297645
226	0xbe008799	-0.12551726
227	0x3e937fe0	0.28808498
228	0x3e071f98	0.13195646
229	0x3cae769b	0.02129679
230	0x3c99754f	0.018732695
231	0xbec7a9f7	-0.3899686
232	0xbde3dfc9	-0.11126668
233	0xbc9143e2	-0.017732564
234	0xbe5fc9a2	-0.2185426
235	0x3ebef610	0.37297106
236	0xbd852275	-0.06500713
237	0xbeeb24f6	-0.45926636
238	0xbc02042f	-0.007935568
239	0xbd834394	-0.06409374
240	0x3ea18905	0.3154985
241	0x3eb3f272	0.3514591
242	0xbeba0986	-0.3633539
243	0x3eb68e74	0.35655558
244	0xbc211d59	-0.009833657
245	0x3e5a7675	0.2133425
246	0xbe5a36bd	-0.21309943
247	0xbe1292cb	-0.1431381
248	0x3db20be4	0.08693674
249	0xbe8b24dd	-0.27176562
250	0x3d31aa0f	0.04337507
251	0xbee3ff0d	-0.44530526
252	0xbdf59080	-0.11990452
253	0x3d8be85b	0.06831428
254	0x3d70a7ed	0.058753897
255	0x3decdc0b	0.11565407

linear2.bias f4 [3]
0	0x3e45ed22	0.1932874
1	0xbdc802f0	-0.09766185
2	0xbd8a94a6	-0.06766634
